data.pth (torch, 5546 bytes, 6 tensors)

l1.weight f4 [8, 55]
0	0x3e34383e	0.1759958
1	0x3e10e43a	0.14149562
2	0xbeb00347	-0.343775
3	0xbdfddf3f	-0.123960964
4	0xbcbe4b84	-0.023229368
5	0x3e38df3d	0.18053909
6	0xbdf015f4	-0.11722937
7	0xbdbbc0e9	-0.09167654
8	0x3e82ff2e	0.25585312
9	0x3ed822f5	0.4221417
10	0x3efcd544	0.4938146
11	0xbdd1a1e9	-0.1023596
12	0xbe5f0199	-0.21777953
13	0x3ec7a5fc	0.38993824
14	0x3e968b93	0.29403362
15	0x3deda803	0.11604311
16	0xbe250f0b	-0.1611902
17	0xbc8a6db0	-0.016898006
18	0x3ec7bf0c	0.39012945
19	0xbe3bf280	-0.18354225
20	0x3d68e291	0.056856696
21	0xbca1125e	-0.019662078
22	0x3e349b68	0.17637408
23	0x3ec05bee	0.37570137
24	0x3ebd5ccf	0.3698487
25	0x3e3a13c8	0.18171608
26	0x3e047e4a	0.129388
27	0x3e2748d1	0.16336371
28	0xbe25110a	-0.16119781
29	0x3e6e987f	0.2330036
30	0xbc840f67	-0.016120626
31	0x3f1c6d84	0.6110461
32	0x3e1b712c	0.1517989
33	0x3f3a5756	0.72789514
34	0x3f0229a2	0.50844777
35	0x3f29214f	0.6606645
36	0xbca5f9b2	-0.020260666
37	0xbe863c03	-0.2621766
38	0x3e81e4cb	0.25369868
39	0xbe0799cb	-0.13242261
40	0x3b082006	0.002077104
41	0x3d5e7095	0.054306585
42	0x3d2aec04	0.04172899
43	0x3ee98227	0.4560711
44	0x3d0acd3f	0.033887144
45	0x3e401b9e	0.18760535
46	0x3e9d3c0c	0.30709875
47	0x3d92cf74	0.07168475
48	0x3e943886	0.28949374
49	0x3e623c4e	0.22093317
50	0x3e732d28	0.23747694
51	0x3f018e0d	0.5060738
52	0x3eb2c0fa	0.34912854
53	0x3cff96a1	0.031199755
54	0x3e707724	0.23482949
55	0xbd37e570	-0.044896543
56	0xbb6759b4	-0.003530127
57	0x3f226aa0	0.63443947
58	0x3f052fea	0.52026236
59	0xbe6a583c	-0.22885221
60	0xbdc19ba2	-0.09453513
61	0x3e78552c	0.2425124
62	0x3ec7acb3	0.38998947
63	0xbda7fcc9	-0.08202512
64	0xbdae238f	-0.08502876
65	0xbe60dbab	-0.21958797
66	0x3e83c5d7	0.25736877
67	0x3f056017	0.52099746
68	0xbebde76c	-0.37090623
69	0xbec1231c	-0.377221
70	0xbe1d6625	-0.15370996
71	0x3e8d4346	0.27590388
72	0x3e806a22	0.25080973
73	0xbeb65cfa	-0.3561781
74	0x3ed23865	0.4105865
75	0xbe6ecb09	-0.2331964
76	0xbe473648	-0.194543
77	0x3d152b84	0.036418453
78	0xbc90c8c5	-0.01767386
79	0x3d216f17	0.039412584
80	0xbec1e304	-0.37868512
81	0xbe04bc9d	-0.12962575
82	0x3eaf368f	0.34221312
83	0x3efb16b7	0.49040768
84	0xbc267008	-0.010158546
85	0xbe03c19e	-0.12866828
86	0xbe779557	-0.24178062
87	0xbe7152f6	-0.23566803
88	0xbe8445e3	-0.2583457
89	0xbf2060c1	-0.62647635
90	0xbf205ca0	-0.62641335
91	0x3efe81ea	0.49708492
92	0x3eaa7220	0.33290195
93	0xbe94e85c	-0.29083526
94	0x3e898a7a	0.26863462
95	0xbe3e4759	-0.18581904
96	0xbe225d7c	-0.15855974
97	0xbdd21e4c	-0.10259685
98	0xbe9e5ac3	-0.3092862
99	0xbe155492	-0.14583042
100	0x3f3459d3	0.7044956
101	0xbe61bf83	-0.22045712
102	0xbe49619b	-0.1966614
103	0xbe1f23c1	-0.15540983
104	0x3d8a630c	0.06757173
105	0xbe0009d0	-0.12503743
106	0xbe8232dd	-0.2542943
107	0xbdade700	-0.084913254
108	0x3f07258c	0.52791667
109	0xbe1d6039	-0.15368737
110	0x3e2d7626	0.16939601
111	0xbd68dfc6	-0.056854032
112	0x3e592c78	0.2120837
113	0x3f3eb5bf	0.7449607
114	0x3e867f03	0.26268777
115	0x3ea340f3	0.3188549
116	0x3dafa4c8	0.085763514
117	0x3f267bc9	0.6503263
118	0x3e5429fa	0.20719138
119	0x3e9fd261	0.31215194
120	0x3eb3e75b	0.35137448
121	0x3ebf3fd9	0.373534
122	0x3e22c90b	0.15897004
123	0x3eb27203	0.3485261
124	0x3ed8156c	0.42203844
125	0x3ea7aff0	0.32751417
126	0x3e3569e1	0.17716171
127	0x3dae8dd5	0.08523146
128	0x3e7ddf46	0.24792203
129	0x3e75c5cf	0.24001239
130	0x3e77877b	0.24172775
131	0xbeae058b	-0.33988604
132	0xbda5c1d3	-0.0809361
133	0xbe1b92bc	-0.15192693
134	0xbcf3faa5	-0.029782603
135	0xbf010b5f	-0.50407976
136	0xbe3be9b0	-0.18350863
137	0x3f23bfdf	0.6396465
138	0x3ca57aef	0.02020022
139	0x3ee568d0	0.44806528
140	0xbe757fe0	-0.23974562
141	0x3dcf2573	0.10114565
142	0xbea1a1b0	-0.3156867
143	0xbf17683a	-0.5914341
144	0x3f213733	0.6297485
145	0x3ef65d46	0.48118037
146	0x3e027e43	0.12743478
147	0x3e0ad57b	0.13557999
148	0x3eeb0181	0.45899585
149	0x3e827db8	0.2548654
150	0xbe598c50	-0.21244931
151	0xbdfdd356	-0.12393825
152	0xbe43c260	-0.19117117
153	0xbe1aa827	-0.15103208
154	0xbe5c6f7a	-0.215269
155	0x3f4bb16e	0.7956761
156	0xbc4d318b	-0.012524019
157	0xbe175d84	-0.14781767
158	0xbdff3c97	-0.124627285
159	0x3ea886f6	0.32915467
160	0x3e92b18f	0.2865109
161	0x3ecab357	0.3958995
162	0xbe97a8f8	-0.296211
163	0x3da93c70	0.08263481
164	0xbe4aac90	-0.1979239
165	0xbe3b4d94	-0.18291312
166	0x3eba6458	0.3640468
167	0xbeb2cde9	-0.34922722
168	0xbea3f8b7	-0.32025692
169	0x3ec8fcad	0.39255276
170	0xbe914e6f	-0.28380153
171	0xbd2c6672	-0.042089887
172	0xbe069d00	-0.13145828
173	0xbe4d4c31	-0.20048596
174	0x3d04d93c	0.032433733
175	0xbe116cd6	-0.14201674
176	0xbe6be3c7	-0.23036109
177	0xbcf578b3	-0.02996478
178	0xbe56404a	-0.20922962
179	0x3f089abc	0.53361106
180	0x3f113af6	0.5673059
181	0xbd84b194	-0.06479183
182	0xbd189ed0	-0.03726083
183	0xbe366a4e	-0.1781399
184	0xbe823d1e	-0.25437254
185	0x3f000759	0.5001121
186	0x3f24b0cd	0.64332277
187	0x3f2f5928	0.68495417
188	0x3ddb2fab	0.10702451
189	0xbdee095b	-0.11622878
190	0x3e66a93d	0.22525497
191	0x3f3c19fb	0.73477143
192	0xbe414730	-0.18874812
193	0xbe874257	-0.264178
194	0x3f0d3005	0.55151397
195	0x3f365463	0.71222514
196	0xbd266c1c	-0.040630445
197	0x3eff3894	0.49847853
198	0xbda7a3cd	-0.081855394
199	0xbea34ca8	-0.31894422
200	0xbea3f901	-0.32025912
201	0xbd5c104a	-0.053726472
202	0xbe59c4b6	-0.21266446
203	0x3f1ff163	0.624777
204	0x3d0784a6	0.033085488
205	0x3edd9c8d	0.432835
206	0x3f15676b	0.5836093
207	0x3f1b4747	0.60655636
208	0x3e6a1f41	0.22863485
209	0x3f20e0c3	0.6284296
210	0xbea3fba7	-0.32027933
211	0x3e283fa4	0.16430527
212	0x3f1fefbf	0.624752
213	0x3e769f8a	0.24084297
214	0x3d8bdb60	0.06828952
215	0x3f2c68cb	0.673474
216	0xbde34cd3	-0.110986374
217	0x3e892ace	0.2679047
218	0x3ee91914	0.45526946
219	0x3dc05f95	0.09393231
220	0xbb25feef	-0.0025328954
221	0x3e6c67bc	0.23086447
222	0x3ef252fe	0.47328943
223	0xbebc61a9	-0.3679326
224	0xbdbd4a76	-0.09242718
225	0xbe0e5353	-0.13898973
226	0x3ea05729	0.31316498
227	0xbe382daf	-0.17986177
228	0xbe477b9a	-0.19480744
229	0x3e15cba6	0.14628467
230	0x3d20ad12	0.039227553
231	0x3e949766	0.29021758
232	0x3f052b85	0.5201953
233	0x3d80d0fe	0.06289862
234	0xbed5b142	-0.417368
235	0xbe37f239	-0.17963494
236	0x3e9acaa3	0.30232725
237	0x3f0066ea	0.50157034
238	0x3d726565	0.05917873
239	0x3ec829d6	0.39094418
240	0xbcc56eeb	-0.024100741
241	0x3e44e47d	0.19227786
242	0x3d89c306	0.06726651
243	0xbe08d85c	-0.13363785
244	0xbe337bfb	-0.17527764
245	0x3eee2acc	0.46517026
246	0x3dc0c92d	0.09413371
247	0xbe337b16	-0.17527422
248	0x3ef1e841	0.47247508
249	0xbd941781	-0.072310455
250	0x3c9e964e	0.01935878
251	0xbc2ed6f5	-0.010671367
252	0x3ef8c543	0.48588
253	0xbeb7a9ec	-0.35871828
254	0x3cfe4cf6	0.031042557
255	0x3d8e0e2f	0.06936299

l1.bias f4 [8]
0	0x3f80b166	1.0054138
1	0x3f205a0a	0.6263739
2	0x3f6b3103	0.9187166
3	0x3ea3e78a	0.32012588
4	0x3ebc4f6a	0.36779338
5	0x3f1a0a6b	0.60172147
6	0x3f1ce30a	0.61283934
7	0x3f3a4c31	0.7277251

l2.weight f4 [8, 8]
0	0x3e316cb6	0.17326626
1	0xbeaedacf	-0.34151313
2	0xbe6718f9	-0.2256812
3	0xbdbe2ba4	-0.092856675
4	0xbe8ffd0e	-0.28122753
5	0x3e3cd486	0.18440446
6	0xbde1dd8e	-0.11028586
7	0x3d766be0	0.06016147
8	0x3c5b93ee	0.013401968
9	0xbdf92322	-0.12164904
10	0xbe3cabd8	-0.18424928
11	0xbe31e6a9	-0.17373146
12	0x3d097b30	0.033564746
13	0xbe0bfa70	-0.13669753
14	0x3d62f798	0.055411905
15	0xbe596375	-0.21229346
16	0x3f26ae05	0.6510928
17	0x3f8766f0	1.0578289
18	0x3f9cee73	1.2260269
19	0xbf9716ee	-1.1803873
20	0xbf3f66ce	-0.7476624
21	0x3bb3bad9	0.0054849205
22	0x3f515690	0.8177271
23	0x3f0594f3	0.52180403
24	0x3e1053dc	0.1409449
25	0xbd8d3d4b	-0.06896456
26	0x3e7c4ca0	0.24638605
27	0xbf305175	-0.68874294
28	0x3f8c0e11	1.0941793
29	0x3efca573	0.49344978
30	0x3f995c65	1.1981322
31	0xbf886cae	-1.0658166
32	0x3f63d0e1	0.889906
33	0xbf6e37ef	-0.930541
34	0xbf04722a	-0.517367
35	0x3f83a1cf	1.0283755
36	0x3f1bad11	0.60810953
37	0x3efbafbf	0.4915752
38	0x3fb1b2f8	1.3882742
39	0x3f611985	0.87929565
40	0x3f631bca	0.8871428
41	0xbe4cd870	-0.2000444
42	0x3f79c38f	0.97564024
43	0xbf068ba4	-0.52556825
44	0xbf7fdc4c	-0.9994552
45	0x3e77f75e	0.24215457
46	0x3e9a0bc7	0.3008711
47	0x3e6520f5	0.22375853
48	0x3e3e471e	0.18581817
49	0xbf419e6f	-0.75632375
50	0x3f12aa3f	0.57291025
51	0x3f7d1b2c	0.98869586
52	0xbee3060d	-0.44340554
53	0x3f51c706	0.8194431
54	0x3f277e39	0.65426975
55	0xbf629419	-0.8850723
56	0x3eade984	0.3396722
57	0x3f5d79e5	0.8651412
58	0x3f9111e8	1.133359
59	0x3eac0bbd	0.33602706
60	0x3f80284c	1.0012298
61	0x3fa14c64	1.2601438
62	0xbf7140fb	-0.9423978
63	0xbeb46887	-0.35235998

l2.bias f4 [8]
0	0xbeb2f9fa	-0.34956342
1	0xbc94b4dc	-0.018152647
2	0x3f2852c6	0.657513
3	0x3d7ddb03	0.061976444
4	0x3e71789b	0.23581164
5	0x3edf459f	0.43607804
6	0x3d7c2506	0.061558746
7	0x3e18b30f	0.14912055

l3.weight f4 [7, 8]
0	0xbd449bf0	-0.048000276
1	0xbdd1f086	-0.10250954
2	0xbf8cde9a	-1.1005433
3	0xbefbc400	-0.49172974
4	0x3f817938	1.0115118
5	0xbf7de90f	-0.99183744
6	0x3e1328d5	0.14371045
7	0xbf961c47	-1.172738
8	0x3b8cc5c0	0.0042960346
9	0xbe6f9502	-0.23396686
10	0xbf2191d3	-0.63113135
11	0xbfa7c960	-1.310833
12	0xbdfdc7b6	-0.123916075
13	0x3e1d4efc	0.15362161
14	0x3f1ab913	0.6043865
15	0x3f0db0ee	0.553481
16	0x3ea2a37d	0.31765357
17	0x3ea2c2da	0.31789285
18	0x3f267f14	0.65037656
19	0xbf2f1d73	-0.6840431
20	0xbfdee5b2	-1.7413847
21	0x3f4390ad	0.7639263
22	0xbf1d9269	-0.6155153
23	0x3e9c3fab	0.30517325
24	0x3e8f0979	0.27936915
25	0xbe95e8de	-0.29279226
26	0x3e5e128a	0.2168676
27	0x3f705d4d	0.93892366
28	0xbe9d0947	-0.3067114
29	0x3efdce06	0.49571246
30	0x3ebd8aa3	0.37019834
31	0xbf0e555b	-0.5559899
32	0xbc1ae240	-0.009453356
33	0x3e6c3270	0.23066115
34	0xbf9c4fe9	-1.2211887
35	0x3f347d96	0.7050413
36	0x3eadb09a	0.339238
37	0xbf60f777	-0.878776
38	0xbe364b2e	-0.17802116
39	0x3eaf797f	0.34272382
40	0x3bbf1a80	0.0058320165
41	0xbd13e172	-0.036103673
42	0xbbcf94e3	-0.0063348874
43	0x3f40a447	0.7525067
44	0xbf8090e4	-1.0044217
45	0xbfbadcfa	-1.4598687
46	0xbf3d2698	-0.73887014
47	0x3f60580d	0.87634355
48	0xbe1a0a24	-0.15042931
49	0xbe885d73	-0.26633796
50	0x3f245fa0	0.6420841
51	0xbf84659b	-1.0343508
52	0x3f05ecac	0.5231426
53	0x3f027f94	0.5097592
54	0xbf62acee	-0.8854512
55	0xbfdc982d	-1.723394

l3.bias f4 [7]
0	0x3e8e38b1	0.27777627
1	0xbe7c401e	-0.24633834
2	0x3e8673ce	0.26260227
3	0xbee38b07	-0.44442007
4	0xbe94f634	-0.29094088
5	0x3b66dd2d	0.0035227046
6	0x3e647f41	0.22314169
